output_heat/stnn_r/model.pt (torch_old, 17722 bytes, 3 tensors)

factors f4 [100, 41, 1]
00000000: f56d 2537 b96d 53b7 230c abb8 1425 efb7
00000010: 62ce 7f35 4fcc 20b4 f737 47b5 3192 b0b5
00000020: 55f6 01b6 09ea 82b5 e328 1cb5 eb72 83b8
00000030: 0e29 1138 0878 0539 0ec9 fdbd 4618 febe
00000040: b2e6 1ebf c3ba 1ebf 6ab8 1ebf 7db7 1ebf
00000050: 03b6 1ebf d7b5 1ebf 30bb 1ebf dddc 1ebf
00000060: 9b0b febe b8ad fdbd 286d ad38 00e8 1838
00000070: 2866 b138 2650 3bb7 198c 3db8 1ab9 b635
00000080: 5428 1537 41a7 85b7 bf66 24b6 7474 dab4
00000090: 9929 dab5 e640 15b7 ab55 07b5 54e8 8bb7
000000a0: 3aaa 47b5 c4d9 dd37 c02b 84b8 be79 8e38
000000b0: aecc 8437 1cb8 1335 4fc0 9236 ed66 f2b5
000000c0: 312f 6234 80a3 8635 4c75 2b37 9992 10b6
000000d0: e396 eeb5 c12a 4838 c1b0 cbbc 03cb 31be
000000e0: b288 e4be f36a 18bf 5abe 1ebf c6b7 1ebf
000000f0: 5bb8 1ebf d3b7 1ebf 90b9 1ebf 97bc 1ebf
00000100: f56a 18bf 249a e4be 9e2c 32be f4e4 ccbc
00000110: 0171 4d38 15b1 2137 1f71 5eb7 52a5 1f37
00000120: c654 8e36 43d9 5735 b4d0 6db7 3ae4 9ab6
00000130: 692d 03b7 250a 2bb6 b8bd 8fb7 125a 8e35
00000140: 1c85 9633 20a4 c237 c565 fc34 86b6 b535
00000150: 84a3 3cb6 8dbb 0a36 cf01 8237 b813 9f35
00000160: 2252 9db5 d96f 51b5 da3a 0fb7 6257 13b6
00000170: e430 3d36 547c 8c37 9908 a2bb de7b 4bbd
00000180: 4639 4bbe 6cdc d7be 0a08 12bf 5474 1dbf
00000190: fbb8 1ebf 6ab8 1ebf d9b6 1ebf e6b7 1ebf
000001a0: 0174 1dbf 7301 12bf 0dc0 d7be 1a58 4bbe
000001b0: 517b 4bbd 7b1c a2bb 4fe9 8437 b314 5135
000001c0: cade c735 88e6 f835 1c0e dcb5 0cc1 1337
000001d0: f062 c735 3149 dab7 a3bb da34 798a 3cb3
000001e0: 7eb3 8638 e3f0 8134 1ac7 8b35 b262 e435
000001f0: 8b4d 3735 46aa a535 859c 77b8 4e9d fe35
00000200: 5a3c 6035 47dd abb7 6786 ee35 8a1d b5b9
00000210: 7784 6336 f0e7 a036 e0ac 80ba 265e 53bc
00000220: 5c5c 90bd 2163 5abe 1b3d d0be 45b4 0cbf
00000230: 996a 1bbf ef7a 1ebf 06b8 1ebf 7eb4 1ebf
00000240: 217c 1ebf 6869 1bbf 2db5 0cbf b03d d0be
00000250: 3564 5abe 3c6f 90bd 3261 53bc bf5a 80ba
00000260: ef78 8036 fbb2 3f37 1302 9fb5 23c0 a9b5
00000270: 18cb 1fb7 a8f4 e3b5 e8d5 2bb7 b555 47b7
00000280: 0b3c 1936 f3d2 f536 fa08 0137 83b7 0236
00000290: 210d 2db4 8e74 ac35 98d4 1ab6 18cb 05b6
000002a0: 443c c933 22e4 abb5 a56d 7f38 b614 0db9
000002b0: 0fd1 0db7 7e18 f937 70e0 4cb9 f580 4fbb
000002c0: 0e84 b4bc 4f42 b3bd fdbc 64be 5016 cbbe
000002d0: 4452 08bf c013 19bf d9e7 1dbf 8caa 1ebf
000002e0: 91aa 1ebf dff0 1dbf f516 19bf 9553 08bf
000002f0: 6710 cbbe 3997 64be 0a45 b3bd 86a2 b4bc
00000300: 4e76 4fbb ff58 49b9 c44c 5a38 62ef f0b6
00000310: dc8d c035 946f 1b35 fe5b 72b6 68ac fb36
00000320: ad50 61b7 1315 63b6 ca85 f538 4a51 9838
00000330: dcfb 82b5 b689 e2b7 e7ac e7b6 4592 12b6
00000340: bbea 1437 1b53 1bb8 54a8 7035 ec56 aeb5
00000350: 1f8c 8db6 ddec 25b7 89ff 19b8 0154 26ba
00000360: f739 cdbb 8d47 00bd fc12 d0bd 4f5d 6cbe
00000370: e13e c7be 9cb7 04bf 69b3 16bf 5218 1dbf
00000380: ff82 1ebf d483 1ebf c417 1dbf 94b1 16bf
00000390: 61b3 04bf d33f c7be f45b 6cbe b015 d0bd
000003a0: cf77 00bd 18f7 cfbb 426e 38ba bcb0 e2b7
000003b0: 01dd 6eb7 9aaf 2fb7 fb18 92b6 6330 35b6
000003c0: dbcb fdb7 9f43 98b6 6b02 a9b5 7ad0 3e38
000003d0: e6d2 bd37 325f 04b7 c9cd 1e38 dd90 62b8
000003e0: 2981 dfb5 1b74 2b36 c80e d034 720f 2c36
000003f0: a466 2736 1cdd 51b8 80a3 e1b6 7035 2ab9
9.860368e-06 -1.2602127e-05 -8.156176e-05 -2.8508286e-05 9.529523e-07 -1.4975488e-07 -7.4214717e-07 -1.3155569e-06
-1.9365882e-06 -9.753868e-07 -5.8174027e-07 -6.267972e-05 3.460893e-05 0.00012728584 -0.12391864 -0.49627894
-0.62070763 -0.62003726 -0.62000144 -0.6199873 -0.6199648 -0.61996216 -0.62004375 -0.6205576
-0.4961823 -0.1238665 8.269615e-05 3.645569e-05 8.459046e-05 -1.116473e-05 -4.5191588e-05 1.3613928e-06
8.890482e-06 -1.593272e-05 -2.449771e-06 -4.0690395e-07 -1.6254372e-06 -8.896202e-06 -5.041608e-07 -1.6678277e-05
-7.438099e-07 2.6446658e-05 -6.3023996e-05 6.793764e-05 1.5830938e-05 5.502968e-07 4.3735267e-06 -1.806036e-06
2.1065058e-07 1.0031363e-06 1.0219705e-05 -2.1543003e-06 -1.7776296e-06 4.7723533e-05 -0.024864556 -0.17362599
-0.4463554 -0.5953819 -0.62009203 -0.61999166 -0.62000054 -0.61999243 -0.62001896 -0.62006515
-0.59538203 -0.4464885 -0.17399833 -0.025011517 4.898105e-05 9.637578e-06 -1.3258569e-05 9.51563e-06
4.2417987e-06 8.04099e-07 -1.4174893e-05 -4.6161267e-06 -7.818781e-06 -2.548689e-06 -1.7135273e-05 1.0606038e-06
7.009132e-08 2.3203029e-05 4.7012705e-07 1.3538672e-06 -2.8109362e-06 2.0672771e-06 1.549805e-05 1.1852162e-06
-1.1721315e-06 -7.8021327e-07 -8.537167e-06 -2.195557e-06 2.8191653e-06 1.6747195e-05 -0.0049448726 -0.049678676
-0.19846067 -0.42160356 -0.57043517 -0.6150563 -0.6200101 -0.62000144 -0.61997753 -0.61999357
-0.6150513 -0.5703346 -0.4213871 -0.19857827 -0.04967815 -0.004947243 1.5844269e-05 7.788869e-07
1.4891496e-06 1.8544533e-06 -1.6395384e-06 8.80683e-06 1.485545e-06 -2.6021708e-05 4.0742188e-07 -4.38981e-08
6.423051e-05 2.420339e-07 1.0414253e-06 1.7016048e-06 6.828565e-07 1.2343014e-06 -5.903516e-05 1.8970256e-06
8.3534326e-07 -2.0487829e-05 1.7771498e-06 -0.0003454502 3.390274e-06 4.7953727e-06 -0.0009817146 -0.012900865
-0.07048866 -0.21326877 -0.4067162 -0.5496257 -0.6070953 -0.6190633 -0.6199955 -0.6199416
-0.61908156 -0.6070771 -0.5496395 -0.40672064 -0.21327288 -0.07052466 -0.012901591 -0.000979267
3.828776e-06 1.1426159e-05 -1.1847027e-06 -1.26474e-06 -9.524425e-06 -1.6984022e-06 -1.0242198e-05 -1.18812795e-05
2.2833726e-06 7.3261267e-06 7.691089e-06 1.9478327e-06 -1.6116657e-07 1.284892e-06 -2.3071534e-06 -1.993676e-06
9.370754e-08 -1.2806888e-06 6.0898852e-05 -0.00013454523 -8.45293e-06 2.9694518e-05 -0.00019538566 -0.0031662558
-0.022035625 -0.08752882 -0.22337718 -0.3966546 -0.5325053 -0.5979576 -0.61681896 -0.61978984
-0.61979014 -0.61695665 -0.59800655 -0.53252536 -0.39660951 -0.22323312 -0.087534025 -0.022050153
-0.0031656208 -0.00019202007 5.2046744e-05 -7.180425e-06 1.4346401e-06 5.790437e-07 -3.6114357e-06 7.5004536e-06
-1.3429829e-05 -3.3837903e-06 0.000117074305 7.263066e-05 -9.759056e-07 -2.7005426e-05 -6.904465e-06 -2.1840835e-06
8.87614e-06 -3.7032278e-05 8.9651917e-07 -1.2989308e-06 -4.2184397e-06 -9.889915e-06 -3.671603e-05 -0.0006344915
-0.0062630135 -0.031318236 -0.10159871 -0.2308247 -0.3891516 -0.51842666 -0.5886751 -0.61365235
-0.61918634 -0.61919904 -0.6136439 -0.5886471 -0.5183621 -0.38915882 -0.23081952 -0.101603866
-0.03136426 -0.0063465945 -0.00070354727 -2.7023598e-05 -1.4237362e-05 -1.0471698e-05 -4.354047e-06 -2.6999267e-06
-3.0254878e-05 -4.537825e-06 -1.2592185e-06 4.549369e-05 2.2628763e-05 -7.8899775e-06 3.7861788e-05 -5.4017513e-05
-1.6652385e-06 2.5548568e-06 3.8753774e-07 2.5638988e-06 2.4944684e-06 -5.0035407e-05 -6.7245564e-06 -0.0001623237

rel_weights f4 [80]
00000000: 4855 a5bc a60a 37bc e45a 223f 69da ae3e
00000010: 1b45 363f 7bdc c53e 7e7a 393f 4f02 c83e
00000020: baee 3b3f a015 003f fcdb 303f 100e 153f
00000030: 4966 273f 2af2 1b3f e42c 243f 1337 273f
00000040: 9a87 1e3f fc42 2b3f 6055 1c3f 091d 2c3f
00000050: bdc6 1b3f c8b9 2c3f d072 1b3f f13b 2d3f
00000060: 0313 1b3f 2f94 2e3f 4c42 1a3f d7f3 2b3f
00000070: f9f5 1b3f 2661 1a3f 8886 283f d5b7 1b3f
00000080: d48d 283f 5b94 1c3f 3c43 283f 7215 223f
00000090: 1a87 233f 5b36 203f 3647 253f ff5d 2b3f
000000a0: 1102 1a3f f1d3 243f b290 203f c553 253f
000000b0: d803 203f 8eb3 283f 2186 1b3f e39d 283f
000000c0: b135 1a3f 108c 1b3f 5986 2c3f c918 1a3f
000000d0: 86ba 2e3f dcfc 1a3f 9855 2d3f 5d80 1b3f
000000e0: 8d98 2c3f f3c8 1b3f d432 2c3f ec65 1c3f
000000f0: a420 2b3f d688 1e3f 9817 273f 1259 213f
00000100: 75c1 213f 6509 263f 48d3 173f d2d3 2b3f
00000110: 5915 0b3f 1c0b 3b3f b46b d03e ac82 3d3f
00000120: 6784 bd3e 3c0e 383f 8277 c93e c197 383f
00000130: 9eb9 963e ae0b 1d3f f87d e9ba 00d1 eab9
-0.020182267 -0.011171972 0.6341994 0.3415101 0.71199197 0.38644776 0.72452533 0.3906426
0.7341114 0.50033 0.6908567 0.5822458 0.6539045 0.6091639 0.64131 0.6531841
0.6192566 0.66899085 0.6106777 0.67231804 0.60850126 0.6747098 0.60722065 0.6766959
0.60575885 0.6819486 0.6025741 0.67168945 0.609222 0.60304487 0.6583028 0.6082738
0.6584141 0.6116387 0.6572759 0.6331397 0.63878024 0.6258294 0.64561784 0.669403
0.60159403 0.64385897 0.6272079 0.6458095 0.62505865 0.6589898 0.6075154 0.65865916
0.60238177 0.60760593 0.673925 0.6019407 0.6825336 0.6054208 0.6770873 0.6074274
0.67420274 0.608535 0.6726506 0.6109302 0.6684668 0.61927545 0.65270376 0.63026536
0.63185817 0.64858085 0.59306765 0.6712009 0.5432945 0.73063827 0.4070717 0.74027514
0.37015077 0.7189672 0.3934899 0.7210656 0.2943849 0.61345947 -0.0017814031 -0.00044787675

dynamic.module.weight f4 [1, 2]
00000000: f2cf 033f 35bb c33e
0.51489174 0.38228765
