output_heat/stnn/model.pt (torch_old, 17292 bytes, 2 tensors)

factors f4 [100, 41, 1]
1.3647125e-05 2.7513246e-05 2.0549305e-05 1.0478445e-05 1.4501082e-05 2.149726e-05 2.7595246e-05 1.8670027e-05
1.8862178e-05 1.5002457e-05 2.2576407e-05 1.8228557e-05 -2.015055e-05 -0.00041018927 0.110151485 0.44190234
0.55264765 0.5523455 0.5522258 0.5522704 0.55222094 0.5522545 0.55237925 0.5526121
0.44195193 0.11026672 -0.00029267158 -0.00014462956 2.7480932e-05 2.4758323e-05 2.2168999e-05 1.3171813e-05
3.2057746e-05 2.6921287e-05 2.1604694e-05 2.47405e-05 2.8338698e-05 2.0590618e-05 2.3040104e-05 2.651819e-05
1.2570612e-05 -4.909631e-06 5.471771e-06 1.0667051e-06 2.0960256e-06 6.4185538e-06 5.7493103e-06 -3.117532e-06
-8.137691e-06 -9.3880124e-07 3.5089576e-07 -7.2329617e-06 -2.4053334e-05 -0.00015396866 0.022166366 0.1555015
0.39714882 0.5301724 0.55239075 0.5523061 0.5522508 0.55227494 0.5522865 0.5524097
0.5300823 0.3971556 0.15529008 0.022112474 -0.00021511705 -3.25418e-05 2.681193e-07 6.035821e-07
-2.4341736e-07 -2.820649e-06 -2.6262624e-05 9.967264e-06 -2.0286957e-06 9.932563e-06 4.5339064e-07 4.8586044e-06
1.08640625e-05 -5.411287e-06 -5.024285e-06 2.3929188e-06 1.0613461e-06 9.020479e-06 8.400949e-06 -1.4789659e-06
3.932804e-06 -2.1745032e-06 2.4941698e-07 -3.0791313e-07 -1.1908105e-05 -4.1072053e-05 0.0043540252 0.04431823
0.17697638 0.37515858 0.5078144 0.5479297 0.5523202 0.5522915 0.55231035 0.5523348
0.54791373 0.50790954 0.37540832 0.1768488 0.044486225 0.004340523 -6.468122e-05 -4.3364453e-06
-1.7107178e-06 3.116929e-07 -1.5228933e-06 8.7557095e-07 4.096195e-07 -2.8753975e-05 3.1717316e-06 1.1937493e-06
-1.1324522e-05 1.3841461e-05 -6.7672386e-07 -3.8061e-06 7.99822e-06 3.025123e-07 -2.9531711e-06 -1.4372087e-05
4.229266e-06 -1.5238902e-05 1.5407738e-07 6.998678e-08 4.1907228e-07 -1.6589467e-05 0.0008405951 0.011468808
0.062854216 0.19006403 0.36221525 0.48945042 0.54080844 0.5514617 0.5523039 0.55228734
0.55144113 0.54084915 0.48946825 0.36223012 0.19006994 0.06280678 0.011417146 0.0008078509
-1.8816047e-05 -3.5269284e-07 -1.9279514e-07 4.9030724e-08 5.2340443e-08 1.6356229e-07 1.3576765e-07 -4.069837e-06
-1.7266439e-07 7.559514e-07 1.5291578e-05 -1.0344254e-05 -5.580903e-06 9.793082e-06 -1.4663263e-05 7.438939e-07
7.6714775e-07 -1.16540405e-05 3.419437e-06 1.5127474e-05 7.355572e-06 1.7239649e-06 0.0001651111 0.0027886154
0.019611634 0.077972256 0.19904701 0.35319155 0.47422627 0.53267497 0.5495068 0.5520969
0.5521259 0.5494652 0.532642 0.4741327 0.35312542 0.19906881 0.077975675 0.019663759
0.002820823 0.00016612971 -3.6149966e-06 2.2911928e-07 1.2796464e-06 1.4478079e-06 2.0499613e-08 2.0670974e-07
5.8023e-07 8.985122e-07 1.7356173e-07 -2.0862339e-05 -5.667417e-06 -4.5313045e-06 9.982377e-06 8.985589e-07
2.0661175e-06 7.4001844e-07 2.5382017e-06 -5.93891e-09 -3.6449633e-06 -1.281679e-05 4.861765e-05 0.00065730984
0.0056353016 0.02794548 0.09054409 0.20568989 0.3465672 0.46173477 0.5243677 0.5466822
0.5515829 0.5515937 0.54665303 0.5243017 0.4617358 0.3465957 0.20559591 0.09047086
0.027896961 0.0056397226 0.0006577449 3.1719796e-05 -9.896312e-07 -4.9917885e-06 3.1184317e-07 -5.9405533e-08
2.7713332e-07 2.1167358e-07 6.386123e-06 7.056727e-06 5.829083e-06 -5.5968803e-06 -1.2895265e-05 6.14549e-06
4.870678e-07 -1.2528764e-05 -5.7266216e-06 1.0523943e-05 1.31514225e-05 8.651974e-06 -1.8524837e-05 0.0001521415
00000000: f5f5 6437 3fcc e637 4c61 ac37 94cc 2f37
00000010: ac49 7337 0455 b437 577c e737 949d 9c37
00000020: 383a 9e37 10b3 7b37 7762 bd37 87e9 9837
00000030: fa08 a9b7 ac0e d7b9 1a97 e13d 0641 e23e
00000040: 517a 0d3f 8466 0d3f ac5e 0d3f 9861 0d3f
00000050: 5a5e 0d3f 8d60 0d3f ba68 0d3f fd77 0d3f
00000060: 8647 e23e 85d3 e13d b771 99b9 b4a7 17b9
00000070: da86 e637 18b0 cf37 90f7 b937 82fc 5c37
00000080: be75 0638 06d5 e137 ba3b b537 d289 cf37
00000090: e4b8 ed37 04ba ac37 3f46 c137 6173 de37
000000a0: 5ee6 5237 69bd a4b6 289a b736 b52b 8f35
000000b0: 72a9 0c36 f55e d736 33ea c036 cb36 51b6
000000c0: 1e87 08b7 ee01 7cb5 bf62 bc34 abb2 f2b6
000000d0: 24c6 c9b7 a672 21b9 3d96 b53c c93b 1f3e
000000e0: 1757 cb3e 61b9 073f 7b69 0d3f ef63 0d3f
000000f0: 4f60 0d3f e461 0d3f a662 0d3f b96a 0d3f
00000100: 79b3 073f fb57 cb3e 5d04 1f3e 3825 b53c
00000110: 0b91 61b9 7e7d 08b8 09f2 8f34 d905 2235
00000120: 07af 82b4 614a 3db6 8e4e dcb7 1339 2737
00000130: ba24 08b6 09a4 2637 8969 f334 1807 a336
00000140: cb44 3637 9a92 b5b6 4896 a8b6 0896 2036
00000150: 9373 8e35 aa56 1737 cdf1 0c37 e280 c6b5
00000160: 87f6 8336 aeed 11b6 9ce7 8534 424f a5b4
00000170: ecc8 47b7 c844 2cb8 36ac 8e3b 0887 353d
00000180: 4c39 353e c914 c03e 2000 023f 1f45 0c3f
00000190: db64 0d3f fa62 0d3f 3664 0d3f d065 0d3f
000001a0: 1344 0c3f 5c06 023f 8535 c03e da17 353e
000001b0: 3037 363d f23a 8e3b 77a5 87b8 c881 91b6
000001c0: d19b e5b5 bf56 a734 3766 ccb5 c708 6b35
000001d0: ade9 db34 b134 f1b7 efd9 5436 ea38 a035
000001e0: 74fe 3db7 9f38 6837 1ca8 35b5 4d6c 7fb6
000001f0: 1830 0637 f968 a234 182f 46b6 a51f 71b7
00000200: 1ee9 8d36 96aa 7fb7 7870 2534 a44b 9633
00000210: dbfc e034 9c29 8bb7 625b 5c3a abe7 3b3c
00000220: b6b9 803d 25a0 423e 4774 b93e 3f99 fa3e
00000230: 6c72 0a3f 982c 0d3f ca63 0d3f b462 0d3f
00000240: 3f2b 0d3f 1775 0a3f 959b fa3e 3a76 b93e
00000250: b2a1 423e d7a0 803d fb0e 3b3c f5c5 533a
00000260: 27d7 9db7 bc59 bdb4 2003 4fb4 da95 5233
00000270: edcc 6033 a99f 2f34 87c7 1134 a28f 88b6
00000280: a065 39b4 96ec 4a35 6a46 8037 3c8c 2db7
00000290: 9743 bbb6 f84c 2437 3c02 76b7 00b0 4735
000002a0: feed 4d35 b985 43b7 7b79 6536 02cc 7d37
000002b0: e2cf f636 fc62 e735 ac21 2d39 34c1 363b
000002c0: 94a8 a03c ebaf 9f3d fbd2 4b3e 86d5 b43e
000002d0: c9cd f23e 635d 083f 7aac 0c3f 3956 0d3f
000002e0: 1f58 0d3f c0a9 0c3f 3a5b 083f 85c1 f23e
000002f0: dbcc b43e b2d8 4b3e b6b1 9f3d e415 a13c
00000300: 8fdd 383b 1b33 2e39 2b99 72b6 d403 7634
00000310: 51c0 ab35 4d52 c235 2017 b032 f1f3 5d34
00000320: 1ac1 1b35 4a31 7135 495c 3a34 8801 afb7
00000330: be2a beb6 9c0b 98b6 fc79 2737 7f34 7135
00000340: a1a7 0a36 aea5 4635 f955 2a36 340f ccb1
00000350: fe9b 74b6 b207 57b7 ceea 4b38 514f 2c3a
00000360: 56a8 b83b ebed e43c 2e6f b93d 5fa0 523e
00000370: 4271 b13e 8068 ec3e f63c 063f 5df3 0b3f
00000380: 8934 0d3f 3f35 0d3f 74f1 0b3f a338 063f
00000390: a368 ec3e fe74 b13e bc87 523e c948 b93d
000003a0: 2b88 e43c 6ccd b83b 836c 2c3a df0a 0538
000003b0: 78d3 84b5 237f a7b6 666b a734 1325 7fb3
000003c0: eac8 9434 6448 6334 6148 d636 d3c8 ec36
000003d0: 7197 c336 d6cc bbb6 be58 58b7 5b35 ce36
000003e0: 0bbf 0235 a232 52b7 4e27 c0b6 fe8f 3037
000003f0: eea4 5c37 f227 1137 c965 9bb7 2c88 1f39

dynamic.module.weight f4 [1, 2]
0.36612764 0.6387265
00000000: 1575 bb3e 9483 233f
